Model: "model"
_________________________________________________________________
Layer (type)                 Output Shape              Param #   
=================================================================
input_1 (InputLayer)         [(None, 28, 28, 1)]       0         
_________________________________________________________________
conv2d (Conv2D)              (None, 26, 26, 64)        640       
_________________________________________________________________
max_pooling2d (MaxPooling2D) (None, 13, 13, 64)        0         
_________________________________________________________________
conv2d_1 (Conv2D)            (None, 11, 11, 128)       73856     
_________________________________________________________________
max_pooling2d_1 (MaxPooling2 (None, 5, 5, 128)         0         
_________________________________________________________________
flatten (Flatten)            (None, 3200)              0         
_________________________________________________________________
dropout (Dropout)            (None, 3200)              0         
_________________________________________________________________
dense (Dense)                (None, 256)               819456    
_________________________________________________________________
dense_1 (Dense)              (None, 10)                2570      
=================================================================
Total params: 896,522
Trainable params: 896,522
Non-trainable params: 0
_________________________________________________________________

_________________________________________________________________
10000/10000 [==============================] - 3s 261us/sample - loss: 0.1101 - sparse_categorical_crossentropy: 0.1957 - 
…
