…
e_categorical_crossentropy: 0.2153 - acc: 0.9378
Model: "densenet_model"
__________________________________________________________________________________________________
Layer (type)                    Output Shape         Param #     Connected to                     
==================================================================================================
input_1 (InputLayer)            [(None, 28, 28, 1)]  0                                            
__________________________________________________________________________________________________
conv2d (Conv2D)                 (None, 28, 28, 64)   3136        input_1[0][0]                    
__________________________________________________________________________________________________
batch_normalization (BatchNorma (None, 28, 28, 64)   256         conv2d[0][0]                     
__________________________________________________________________________________________________
activation (Activation)         (None, 28, 28, 64)   0           batch_normalization[0][0]        
__________________________________________________________________________________________________
batch_normalization_1 (BatchNor (None, 28, 28, 64)   256         activation[0][0]                 
__________________________________________________________________________________________________
activation_1 (Activation)       (None, 28, 28, 64)   0           batch_normalization_1[0][0]      
__________________________________________________________________________________________________
conv2d_1 (Conv2D)               (None, 28, 28, 32)   18432       activation_1[0][0]               
__________________________________________________________________________________________________
concatenate (Concatenate)       (None, 28, 28, 96)   0           conv2d_1[0][0]                   
                                                                 activation[0][0]                 
__________________________________________________________________________________________________
batch_normalization_2 (BatchNor (None, 28, 28, 96)   384         concatenate[0][0]                
__________________________________________________________________________________________________
activation_2 (Activation)       (None, 28, 28, 96)   0           batch_normalization_2[0][0]      
__________________________________________________________________________________________________
conv2d_2 (Conv2D)               (None, 28, 28, 32)   27648       activation_2[0][0]               
__________________________________________________________________________________________________
concatenate_1 (Concatenate)     (None, 28, 28, 128)  0           conv2d_2[0][0]                   
                                                                 conv2d_1[0][0]                   
                                                                 activation[0][0]                 
__________________________________________________________________________________________________
batch_normalization_3 (BatchNor (None, 28, 28, 128)  512         concatenate_1[0][0]              
__________________________________________________________________________________________________
activation_3 (Activation)       (None, 28, 28, 128)  0           batch_normalization_3[0][0]      
__________________________________________________________________________________________________
conv2d_3 (Conv2D)               (None, 28, 28, 32)   36864       activation_3[0][0]               
__________________________________________________________________________________________________
concatenate_2 (Concatenate)     (None, 28, 28, 160)  0           conv2d_3[0][0]                   
                                                                 conv2d_2[0][0]                   
                                                                 conv2d_1[0][0]                   
                                                                 activation[0][0]                 
__________________________________________________________________________________________________
batch_normalization_4 (BatchNor (None, 28, 28, 160)  640         concatenate_2[0][0]              
__________________________________________________________________________________________________
activation_4 (Activation)       (None, 28, 28, 160)  0           batch_normalization_4[0][0]      
__________________________________________________________________________________________________
conv2d_4 (Conv2D)               (None, 28, 28, 32)   46080       activation_4[0][0]               
__________________________________________________________________________________________________
concatenate_3 (Concatenate)     (None, 28, 28, 192)  0           conv2d_4[0][0]                   
                                                                 conv2d_3[0][0]                   
                                                                 conv2d_2[0][0]                   
                                                                 conv2d_1[0][0]                   
                                                                 activation[0][0]                 
__________________________________________________________________________________________________
batch_normalization_5 (BatchNor (None, 28, 28, 192)  768         concatenate_3[0][0]              
__________________________________________________________________________________________________
activation_5 (Activation)       (None, 28, 28, 192)  0           batch_normalization_5[0][0]      
__________________________________________________________________________________________________
conv2d_5 (Conv2D)               (None, 28, 28, 96)   18432       activation_5[0][0]               
__________________________________________________________________________________________________
average_pooling2d (AveragePooli (None, 14, 14, 96)   0           conv2d_5[0][0]                   
__________________________________________________________________________________________________
batch_normalization_6 (BatchNor (None, 14, 14, 96)   384         average_pooling2d[0][0]          
__________________________________________________________________________________________________
activation_6 (Activation)       (None, 14, 14, 96)   0           batch_normalization_6[0][0]      
__________________________________________________________________________________________________
conv2d_6 (Conv2D)               (None, 14, 14, 32)   27648       activation_6[0][0]               
__________________________________________________________________________________________________
concatenate_4 (Concatenate)     (None, 14, 14, 128)  0           conv2d_6[0][0]                   
                                                                 average_pooling2d[0][0]          
__________________________________________________________________________________________________
batch_normalization_7 (BatchNor (None, 14, 14, 128)  512         concatenate_4[0][0]              
__________________________________________________________________________________________________
activation_7 (Activation)       (None, 14, 14, 128)  0           batch_normalization_7[0][0]      
__________________________________________________________________________________________________
conv2d_7 (Conv2D)               (None, 14, 14, 32)   36864       activation_7[0][0]               
__________________________________________________________________________________________________
concatenate_5 (Concatenate)     (None, 14, 14, 160)  0           conv2d_7[0][0]                   
                                                                 conv2d_6[0][0]                   
                                                                 average_pooling2d[0][0]          
__________________________________________________________________________________________________
batch_normalization_8 (BatchNor (None, 14, 14, 160)  640         concatenate_5[0][0]              
__________________________________________________________________________________________________
activation_8 (Activation)       (None, 14, 14, 160)  0           batch_normalization_8[0][0]      
__________________________________________________________________________________________________
conv2d_8 (Conv2D)               (None, 14, 14, 32)   46080       activation_8[0][0]               
__________________________________________________________________________________________________
concatenate_6 (Concatenate)     (None, 14, 14, 192)  0           conv2d_8[0][0]                   
                                                                 conv2d_7[0][0]                   
                                                                 conv2d_6[0][0]                   
                                                                 average_pooling2d[0][0]          
__________________________________________________________________________________________________
batch_normalization_9 (BatchNor (None, 14, 14, 192)  768         concatenate_6[0][0]              
__________________________________________________________________________________________________
activation_9 (Activation)       (None, 14, 14, 192)  0           batch_normalization_9[0][0]      
__________________________________________________________________________________________________
conv2d_9 (Conv2D)               (None, 14, 14, 32)   55296       activation_9[0][0]               
__________________________________________________________________________________________________
concatenate_7 (Concatenate)     (None, 14, 14, 224)  0           conv2d_9[0][0]                   
                                                                 conv2d_8[0][0]                   
                                                                 conv2d_7[0][0]                   
                                                                 conv2d_6[0][0]                   
                                                                 average_pooling2d[0][0]          
__________________________________________________________________________________________________
batch_normalization_10 (BatchNo (None, 14, 14, 224)  896         concatenate_7[0][0]              
__________________________________________________________________________________________________
activation_10 (Activation)      (None, 14, 14, 224)  0           batch_normalization_10[0][0]     
__________________________________________________________________________________________________
conv2d_10 (Conv2D)              (None, 14, 14, 112)  25088       activation_10[0][0]              
__________________________________________________________________________________________________
average_pooling2d_1 (AveragePoo (None, 7, 7, 112)    0           conv2d_10[0][0]                  
__________________________________________________________________________________________________
batch_normalization_11 (BatchNo (None, 7, 7, 112)    448         average_pooling2d_1[0][0]        
__________________________________________________________________________________________________
activation_11 (Activation)      (None, 7, 7, 112)    0           batch_normalization_11[0][0]     
__________________________________________________________________________________________________
conv2d_11 (Conv2D)              (None, 7, 7, 32)     32256       activation_11[0][0]              
__________________________________________________________________________________________________
concatenate_8 (Concatenate)     (None, 7, 7, 144)    0           conv2d_11[0][0]                  
                                                                 average_pooling2d_1[0][0]        
__________________________________________________________________________________________________
batch_normalization_12 (BatchNo (None, 7, 7, 144)    576         concatenate_8[0][0]              
__________________________________________________________________________________________________
activation_12 (Activation)      (None, 7, 7, 144)    0           batch_normalization_12[0][0]     
__________________________________________________________________________________________________
conv2d_12 (Conv2D)              (None, 7, 7, 32)     41472       activation_12[0][0]              
__________________________________________________________________________________________________
concatenate_9 (Concatenate)     (None, 7, 7, 176)    0           conv2d_12[0][0]                  
                                                                 conv2d_11[0][0]                  
                                                                 average_pooling2d_1[0][0]        
__________________________________________________________________________________________________
batch_normalization_13 (BatchNo (None, 7, 7, 176)    704         concatenate_9[0][0]              
__________________________________________________________________________________________________
activation_13 (Activation)      (None, 7, 7, 176)    0           batch_normalization_13[0][0]     
__________________________________________________________________________________________________
conv2d_13 (Conv2D)              (None, 7, 7, 32)     50688       activation_13[0][0]              
__________________________________________________________________________________________________
concatenate_10 (Concatenate)    (None, 7, 7, 208)    0           conv2d_13[0][0]                  
                                                                 conv2d_12[0][0]                  
                                                                 conv2d_11[0][0]                  
                                                                 average_pooling2d_1[0][0]        
__________________________________________________________________________________________________
batch_normalization_14 (BatchNo (None, 7, 7, 208)    832         concatenate_10[0][0]             
__________________________________________________________________________________________________
activation_14 (Activation)      (None, 7, 7, 208)    0           batch_normalization_14[0][0]     
__________________________________________________________________________________________________
conv2d_14 (Conv2D)              (None, 7, 7, 32)     59904       activation_14[0][0]              
__________________________________________________________________________________________________
concatenate_11 (Concatenate)    (None, 7, 7, 240)    0           conv2d_14[0][0]                  
                                                                 conv2d_13[0][0]                  
                                                                 conv2d_12[0][0]                  
                                                                 conv2d_11[0][0]                  
                                                                 average_pooling2d_1[0][0]        
__________________________________________________________________________________________________
batch_normalization_15 (BatchNo (None, 7, 7, 240)    960         concatenate_11[0][0]             
__________________________________________________________________________________________________
average_pooling2d_2 (AveragePoo (None, 3, 3, 240)    0           batch_normalization_15[0][0]     
__________________________________________________________________________________________________
flatten (Flatten)               (None, 2160)         0           average_pooling2d_2[0][0]        
__________________________________________________________________________________________________
dense (Dense)                   (None, 10)           21610       flatten[0][0]                    
==================================================================================================
Total params: 557,034
Trainable params: 552,266
Non-trainable params: 4,768
__________________________________________________________________________________________________