…
rse_categorical_crossentropy: 0.2093 - acc: 0.9389
Model: "resnet_model"
__________________________________________________________________________________________________
Layer (type)                    Output Shape         Param #     Connected to                     
==================================================================================================
input_1 (InputLayer)            [(None, 28, 28, 1)]  0                                            
__________________________________________________________________________________________________
conv2d (Conv2D)                 (None, 28, 28, 64)   640         input_1[0][0]                    
__________________________________________________________________________________________________
conv2d_1 (Conv2D)               (None, 28, 28, 64)   36928       conv2d[0][0]                     
__________________________________________________________________________________________________
dropout (Dropout)               (None, 28, 28, 64)   0           conv2d_1[0][0]                   
__________________________________________________________________________________________________
conv2d_2 (Conv2D)               (None, 28, 28, 64)   36928       dropout[0][0]                    
__________________________________________________________________________________________________
add (Add)                       (None, 28, 28, 64)   0           conv2d_2[0][0]                   
                                                                 conv2d[0][0]                     
__________________________________________________________________________________________________
conv2d_3 (Conv2D)               (None, 28, 28, 64)   36928       add[0][0]                        
__________________________________________________________________________________________________
dropout_1 (Dropout)             (None, 28, 28, 64)   0           conv2d_3[0][0]                   
__________________________________________________________________________________________________
conv2d_4 (Conv2D)               (None, 28, 28, 64)   36928       dropout_1[0][0]                  
__________________________________________________________________________________________________
add_1 (Add)                     (None, 28, 28, 64)   0           conv2d_4[0][0]                   
                                                                 add[0][0]                        
__________________________________________________________________________________________________
max_pooling2d (MaxPooling2D)    (None, 14, 14, 64)   0           add_1[0][0]                      
__________________________________________________________________________________________________
conv2d_6 (Conv2D)               (None, 14, 14, 128)  73856       max_pooling2d[0][0]              
__________________________________________________________________________________________________
dropout_2 (Dropout)             (None, 14, 14, 128)  0           conv2d_6[0][0]                   
__________________________________________________________________________________________________
conv2d_7 (Conv2D)               (None, 14, 14, 128)  147584      dropout_2[0][0]                  
__________________________________________________________________________________________________
conv2d_5 (Conv2D)               (None, 14, 14, 128)  8320        max_pooling2d[0][0]              
__________________________________________________________________________________________________
add_2 (Add)                     (None, 14, 14, 128)  0           conv2d_7[0][0]                   
                                                                 conv2d_5[0][0]                   
__________________________________________________________________________________________________
conv2d_8 (Conv2D)               (None, 14, 14, 128)  147584      add_2[0][0]                      
__________________________________________________________________________________________________
dropout_3 (Dropout)             (None, 14, 14, 128)  0           conv2d_8[0][0]                   
__________________________________________________________________________________________________
conv2d_9 (Conv2D)               (None, 14, 14, 128)  147584      dropout_3[0][0]                  
__________________________________________________________________________________________________
add_3 (Add)                     (None, 14, 14, 128)  0           conv2d_9[0][0]                   
                                                                 add_2[0][0]                      
__________________________________________________________________________________________________
max_pooling2d_1 (MaxPooling2D)  (None, 7, 7, 128)    0           add_3[0][0]                      
__________________________________________________________________________________________________
conv2d_11 (Conv2D)              (None, 7, 7, 256)    295168      max_pooling2d_1[0][0]            
__________________________________________________________________________________________________
dropout_4 (Dropout)             (None, 7, 7, 256)    0           conv2d_11[0][0]                  
__________________________________________________________________________________________________
conv2d_12 (Conv2D)              (None, 7, 7, 256)    590080      dropout_4[0][0]                  
__________________________________________________________________________________________________
conv2d_10 (Conv2D)              (None, 7, 7, 256)    33024       max_pooling2d_1[0][0]            
__________________________________________________________________________________________________
add_4 (Add)                     (None, 7, 7, 256)    0           conv2d_12[0][0]                  
                                                                 conv2d_10[0][0]                  
__________________________________________________________________________________________________
conv2d_13 (Conv2D)              (None, 7, 7, 256)    590080      add_4[0][0]                      
__________________________________________________________________________________________________
dropout_5 (Dropout)             (None, 7, 7, 256)    0           conv2d_13[0][0]                  
__________________________________________________________________________________________________
conv2d_14 (Conv2D)              (None, 7, 7, 256)    590080      dropout_5[0][0]                  
__________________________________________________________________________________________________
add_5 (Add)                     (None, 7, 7, 256)    0           conv2d_14[0][0]                  
                                                                 add_4[0][0]                      
__________________________________________________________________________________________________
max_pooling2d_2 (MaxPooling2D)  (None, 3, 3, 256)    0           add_5[0][0]                      
__________________________________________________________________________________________________
conv2d_16 (Conv2D)              (None, 3, 3, 512)    1180160     max_pooling2d_2[0][0]            
__________________________________________________________________________________________________
dropout_6 (Dropout)             (None, 3, 3, 512)    0           conv2d_16[0][0]                  
__________________________________________________________________________________________________
conv2d_17 (Conv2D)              (None, 3, 3, 512)    2359808     dropout_6[0][0]                  
__________________________________________________________________________________________________
conv2d_15 (Conv2D)              (None, 3, 3, 512)    131584      max_pooling2d_2[0][0]            
__________________________________________________________________________________________________
add_6 (Add)                     (None, 3, 3, 512)    0           conv2d_17[0][0]                  
                                                                 conv2d_15[0][0]                  
__________________________________________________________________________________________________
conv2d_18 (Conv2D)              (None, 3, 3, 512)    2359808     add_6[0][0]                      
__________________________________________________________________________________________________
dropout_7 (Dropout)             (None, 3, 3, 512)    0           conv2d_18[0][0]                  
__________________________________________________________________________________________________
conv2d_19 (Conv2D)              (None, 3, 3, 512)    2359808     dropout_7[0][0]                  
__________________________________________________________________________________________________
add_7 (Add)                     (None, 3, 3, 512)    0           conv2d_19[0][0]                  
                                                                 add_6[0][0]                      
__________________________________________________________________________________________________
average_pooling2d (AveragePooli (None, 1, 1, 512)    0           add_7[0][0]                      
__________________________________________________________________________________________________
flatten (Flatten)               (None, 512)          0           average_pooling2d[0][0]          
__________________________________________________________________________________________________
dense (Dense)                   (None, 10)           5130        flatten[0][0]                    
==================================================================================================
Total params: 11,168,010
Trainable params: 11,168,010
Non-trainable params: 0
__________________________________________________________________________________________________