…
ategorical_crossentropy: 0.2004 - acc: 0.9417
Model: "wide_resnet_model"
__________________________________________________________________________________________________
Layer (type)                    Output Shape         Param #     Connected to                     
==================================================================================================
input_1 (InputLayer)            [(None, 28, 28, 1)]  0                                            
__________________________________________________________________________________________________
conv2d (Conv2D)                 (None, 28, 28, 64)   640         input_1[0][0]                    
__________________________________________________________________________________________________
conv2d_2 (Conv2D)               (None, 28, 28, 96)   55392       conv2d[0][0]                     
__________________________________________________________________________________________________
dropout (Dropout)               (None, 28, 28, 96)   0           conv2d_2[0][0]                   
__________________________________________________________________________________________________
conv2d_3 (Conv2D)               (None, 28, 28, 96)   83040       dropout[0][0]                    
__________________________________________________________________________________________________
conv2d_1 (Conv2D)               (None, 28, 28, 96)   6240        conv2d[0][0]                     
__________________________________________________________________________________________________
add (Add)                       (None, 28, 28, 96)   0           conv2d_3[0][0]                   
                                                                 conv2d_1[0][0]                   
__________________________________________________________________________________________________
conv2d_4 (Conv2D)               (None, 28, 28, 96)   83040       add[0][0]                        
__________________________________________________________________________________________________
dropout_1 (Dropout)             (None, 28, 28, 96)   0           conv2d_4[0][0]                   
__________________________________________________________________________________________________
conv2d_5 (Conv2D)               (None, 28, 28, 96)   83040       dropout_1[0][0]                  
__________________________________________________________________________________________________
add_1 (Add)                     (None, 28, 28, 96)   0           conv2d_5[0][0]                   
                                                                 add[0][0]                        
__________________________________________________________________________________________________
max_pooling2d (MaxPooling2D)    (None, 14, 14, 96)   0           add_1[0][0]                      
__________________________________________________________________________________________________
conv2d_7 (Conv2D)               (None, 14, 14, 192)  166080      max_pooling2d[0][0]              
__________________________________________________________________________________________________
dropout_2 (Dropout)             (None, 14, 14, 192)  0           conv2d_7[0][0]                   
__________________________________________________________________________________________________
conv2d_8 (Conv2D)               (None, 14, 14, 192)  331968      dropout_2[0][0]                  
__________________________________________________________________________________________________
conv2d_6 (Conv2D)               (None, 14, 14, 192)  18624       max_pooling2d[0][0]              
__________________________________________________________________________________________________
add_2 (Add)                     (None, 14, 14, 192)  0           conv2d_8[0][0]                   
                                                                 conv2d_6[0][0]                   
__________________________________________________________________________________________________
conv2d_9 (Conv2D)               (None, 14, 14, 192)  331968      add_2[0][0]                      
__________________________________________________________________________________________________
dropout_3 (Dropout)             (None, 14, 14, 192)  0           conv2d_9[0][0]                   
__________________________________________________________________________________________________
conv2d_10 (Conv2D)              (None, 14, 14, 192)  331968      dropout_3[0][0]                  
__________________________________________________________________________________________________
add_3 (Add)                     (None, 14, 14, 192)  0           conv2d_10[0][0]                  
                                                                 add_2[0][0]                      
__________________________________________________________________________________________________
max_pooling2d_1 (MaxPooling2D)  (None, 7, 7, 192)    0           add_3[0][0]                      
__________________________________________________________________________________________________
conv2d_12 (Conv2D)              (None, 7, 7, 384)    663936      max_pooling2d_1[0][0]            
__________________________________________________________________________________________________
dropout_4 (Dropout)             (None, 7, 7, 384)    0           conv2d_12[0][0]                  
__________________________________________________________________________________________________
conv2d_13 (Conv2D)              (None, 7, 7, 384)    1327488     dropout_4[0][0]                  
__________________________________________________________________________________________________
conv2d_11 (Conv2D)              (None, 7, 7, 384)    74112       max_pooling2d_1[0][0]            
__________________________________________________________________________________________________
add_4 (Add)                     (None, 7, 7, 384)    0           conv2d_13[0][0]                  
                                                                 conv2d_11[0][0]                  
__________________________________________________________________________________________________
conv2d_14 (Conv2D)              (None, 7, 7, 384)    1327488     add_4[0][0]                      
__________________________________________________________________________________________________
dropout_5 (Dropout)             (None, 7, 7, 384)    0           conv2d_14[0][0]                  
__________________________________________________________________________________________________
conv2d_15 (Conv2D)              (None, 7, 7, 384)    1327488     dropout_5[0][0]                  
__________________________________________________________________________________________________
add_5 (Add)                     (None, 7, 7, 384)    0           conv2d_15[0][0]                  
                                                                 add_4[0][0]                      
__________________________________________________________________________________________________
average_pooling2d (AveragePooli (None, 3, 3, 384)    0           add_5[0][0]                      
__________________________________________________________________________________________________
flatten (Flatten)               (None, 3456)         0           average_pooling2d[0][0]          
__________________________________________________________________________________________________
dense (Dense)                   (None, 10)           34570       flatten[0][0]                    
==================================================================================================
Total params: 6,247,082
Trainable params: 6,247,082
Non-trainable params: 0
__________________________________________________________________________________________________