Model: "model"
_________________________________________________________________
Layer (type)                 Output Shape              Param #   
=================================================================
input_1 (InputLayer)         [(None, 28, 28, 1)]       0         
_________________________________________________________________
conv2d (Conv2D)              (None, 26, 26, 32)        320       
_________________________________________________________________
max_pooling2d (MaxPooling2D) (None, 13, 13, 32)        0         
_________________________________________________________________
conv2d_1 (Conv2D)            (None, 11, 11, 64)        18496     
_________________________________________________________________
max_pooling2d_1 (MaxPooling2 (None, 5, 5, 64)          0         
_________________________________________________________________
flatten (Flatten)            (None, 1600)              0         
_________________________________________________________________
dense (Dense)                (None, 256)               409856    
_________________________________________________________________
dense_1 (Dense)              (None, 10)                2570      
=================================================================
Total params: 431,242
Trainable params: 431,242
Non-trainable params: 0
_________________________________________________________________
10000/10000 [==============================] - 1s 82us/sample - loss: 0.2647 - sparse_categorical_crossentropy: 0.2647 - acc: 0.9148
Test:
 Sparse_categorical_crossentropy: 0.2647295296192169
…
