…
cal_crossentropy: 0.1900 - acc: 0.9339
Model: "separable_densenet_model"
__________________________________________________________________________________________________
Layer (type)                    Output Shape         Param #     Connected to                     
==================================================================================================
input_1 (InputLayer)            [(None, 28, 28, 1)]  0                                            
__________________________________________________________________________________________________
conv2d (Conv2D)                 (None, 28, 28, 64)   3136        input_1[0][0]                    
__________________________________________________________________________________________________
batch_normalization (BatchNorma (None, 28, 28, 64)   256         conv2d[0][0]                     
__________________________________________________________________________________________________
activation (Activation)         (None, 28, 28, 64)   0           batch_normalization[0][0]        
__________________________________________________________________________________________________
batch_normalization_1 (BatchNor (None, 28, 28, 64)   256         activation[0][0]                 
__________________________________________________________________________________________________
activation_1 (Activation)       (None, 28, 28, 64)   0           batch_normalization_1[0][0]      
__________________________________________________________________________________________________
separable_conv2d (SeparableConv (None, 28, 28, 16)   1600        activation_1[0][0]               
__________________________________________________________________________________________________
concatenate (Concatenate)       (None, 28, 28, 80)   0           separable_conv2d[0][0]           
                                                                 activation[0][0]                 
__________________________________________________________________________________________________
batch_normalization_2 (BatchNor (None, 28, 28, 80)   320         concatenate[0][0]                
__________________________________________________________________________________________________
activation_2 (Activation)       (None, 28, 28, 80)   0           batch_normalization_2[0][0]      
__________________________________________________________________________________________________
separable_conv2d_1 (SeparableCo (None, 28, 28, 16)   2000        activation_2[0][0]               
__________________________________________________________________________________________________
concatenate_1 (Concatenate)     (None, 28, 28, 96)   0           separable_conv2d_1[0][0]         
                                                                 separable_conv2d[0][0]           
                                                                 activation[0][0]                 
__________________________________________________________________________________________________
batch_normalization_3 (BatchNor (None, 28, 28, 96)   384         concatenate_1[0][0]              
__________________________________________________________________________________________________
activation_3 (Activation)       (None, 28, 28, 96)   0           batch_normalization_3[0][0]      
__________________________________________________________________________________________________
separable_conv2d_2 (SeparableCo (None, 28, 28, 16)   2400        activation_3[0][0]               
__________________________________________________________________________________________________
concatenate_2 (Concatenate)     (None, 28, 28, 112)  0           separable_conv2d_2[0][0]         
                                                                 separable_conv2d_1[0][0]         
                                                                 separable_conv2d[0][0]           
                                                                 activation[0][0]                 
__________________________________________________________________________________________________
batch_normalization_4 (BatchNor (None, 28, 28, 112)  448         concatenate_2[0][0]              
__________________________________________________________________________________________________
activation_4 (Activation)       (None, 28, 28, 112)  0           batch_normalization_4[0][0]      
__________________________________________________________________________________________________
separable_conv2d_3 (SeparableCo (None, 28, 28, 16)   2800        activation_4[0][0]               
__________________________________________________________________________________________________
concatenate_3 (Concatenate)     (None, 28, 28, 128)  0           separable_conv2d_3[0][0]         
                                                                 separable_conv2d_2[0][0]         
                                                                 separable_conv2d_1[0][0]         
                                                                 separable_conv2d[0][0]           
                                                                 activation[0][0]                 
__________________________________________________________________________________________________
batch_normalization_5 (BatchNor (None, 28, 28, 128)  512         concatenate_3[0][0]              
__________________________________________________________________________________________________
activation_5 (Activation)       (None, 28, 28, 128)  0           batch_normalization_5[0][0]      
__________________________________________________________________________________________________
conv2d_1 (Conv2D)               (None, 28, 28, 64)   8192        activation_5[0][0]               
__________________________________________________________________________________________________
average_pooling2d (AveragePooli (None, 14, 14, 64)   0           conv2d_1[0][0]                   
__________________________________________________________________________________________________
batch_normalization_6 (BatchNor (None, 14, 14, 64)   256         average_pooling2d[0][0]          
__________________________________________________________________________________________________
activation_6 (Activation)       (None, 14, 14, 64)   0           batch_normalization_6[0][0]      
__________________________________________________________________________________________________
separable_conv2d_4 (SeparableCo (None, 14, 14, 16)   1600        activation_6[0][0]               
__________________________________________________________________________________________________
concatenate_4 (Concatenate)     (None, 14, 14, 80)   0           separable_conv2d_4[0][0]         
                                                                 average_pooling2d[0][0]          
__________________________________________________________________________________________________
batch_normalization_7 (BatchNor (None, 14, 14, 80)   320         concatenate_4[0][0]              
__________________________________________________________________________________________________
activation_7 (Activation)       (None, 14, 14, 80)   0           batch_normalization_7[0][0]      
__________________________________________________________________________________________________
separable_conv2d_5 (SeparableCo (None, 14, 14, 16)   2000        activation_7[0][0]               
__________________________________________________________________________________________________
concatenate_5 (Concatenate)     (None, 14, 14, 96)   0           separable_conv2d_5[0][0]         
                                                                 separable_conv2d_4[0][0]         
                                                                 average_pooling2d[0][0]          
__________________________________________________________________________________________________
batch_normalization_8 (BatchNor (None, 14, 14, 96)   384         concatenate_5[0][0]              
__________________________________________________________________________________________________
activation_8 (Activation)       (None, 14, 14, 96)   0           batch_normalization_8[0][0]      
__________________________________________________________________________________________________
separable_conv2d_6 (SeparableCo (None, 14, 14, 16)   2400        activation_8[0][0]               
__________________________________________________________________________________________________
concatenate_6 (Concatenate)     (None, 14, 14, 112)  0           separable_conv2d_6[0][0]         
                                                                 separable_conv2d_5[0][0]         
                                                                 separable_conv2d_4[0][0]         
                                                                 average_pooling2d[0][0]          
__________________________________________________________________________________________________
batch_normalization_9 (BatchNor (None, 14, 14, 112)  448         concatenate_6[0][0]              
__________________________________________________________________________________________________
activation_9 (Activation)       (None, 14, 14, 112)  0           batch_normalization_9[0][0]      
__________________________________________________________________________________________________
separable_conv2d_7 (SeparableCo (None, 14, 14, 16)   2800        activation_9[0][0]               
__________________________________________________________________________________________________
concatenate_7 (Concatenate)     (None, 14, 14, 128)  0           separable_conv2d_7[0][0]         
                                                                 separable_conv2d_6[0][0]         
                                                                 separable_conv2d_5[0][0]         
                                                                 separable_conv2d_4[0][0]         
                                                                 average_pooling2d[0][0]          
__________________________________________________________________________________________________
batch_normalization_10 (BatchNo (None, 14, 14, 128)  512         concatenate_7[0][0]              
__________________________________________________________________________________________________
activation_10 (Activation)      (None, 14, 14, 128)  0           batch_normalization_10[0][0]     
__________________________________________________________________________________________________
conv2d_2 (Conv2D)               (None, 14, 14, 64)   8192        activation_10[0][0]              
__________________________________________________________________________________________________
average_pooling2d_1 (AveragePoo (None, 7, 7, 64)     0           conv2d_2[0][0]                   
__________________________________________________________________________________________________
batch_normalization_11 (BatchNo (None, 7, 7, 64)     256         average_pooling2d_1[0][0]        
__________________________________________________________________________________________________
activation_11 (Activation)      (None, 7, 7, 64)     0           batch_normalization_11[0][0]     
__________________________________________________________________________________________________
separable_conv2d_8 (SeparableCo (None, 7, 7, 16)     1600        activation_11[0][0]              
__________________________________________________________________________________________________
concatenate_8 (Concatenate)     (None, 7, 7, 80)     0           separable_conv2d_8[0][0]         
                                                                 average_pooling2d_1[0][0]        
__________________________________________________________________________________________________
batch_normalization_12 (BatchNo (None, 7, 7, 80)     320         concatenate_8[0][0]              
__________________________________________________________________________________________________
activation_12 (Activation)      (None, 7, 7, 80)     0           batch_normalization_12[0][0]     
__________________________________________________________________________________________________
separable_conv2d_9 (SeparableCo (None, 7, 7, 16)     2000        activation_12[0][0]              
__________________________________________________________________________________________________
concatenate_9 (Concatenate)     (None, 7, 7, 96)     0           separable_conv2d_9[0][0]         
                                                                 separable_conv2d_8[0][0]         
                                                                 average_pooling2d_1[0][0]        
__________________________________________________________________________________________________
batch_normalization_13 (BatchNo (None, 7, 7, 96)     384         concatenate_9[0][0]              
__________________________________________________________________________________________________
activation_13 (Activation)      (None, 7, 7, 96)     0           batch_normalization_13[0][0]     
__________________________________________________________________________________________________
separable_conv2d_10 (SeparableC (None, 7, 7, 16)     2400        activation_13[0][0]              
__________________________________________________________________________________________________
concatenate_10 (Concatenate)    (None, 7, 7, 112)    0           separable_conv2d_10[0][0]        
                                                                 separable_conv2d_9[0][0]         
                                                                 separable_conv2d_8[0][0]         
                                                                 average_pooling2d_1[0][0]        
__________________________________________________________________________________________________
batch_normalization_14 (BatchNo (None, 7, 7, 112)    448         concatenate_10[0][0]             
__________________________________________________________________________________________________
activation_14 (Activation)      (None, 7, 7, 112)    0           batch_normalization_14[0][0]     
__________________________________________________________________________________________________
separable_conv2d_11 (SeparableC (None, 7, 7, 16)     2800        activation_14[0][0]              
__________________________________________________________________________________________________
concatenate_11 (Concatenate)    (None, 7, 7, 128)    0           separable_conv2d_11[0][0]        
                                                                 separable_conv2d_10[0][0]        
                                                                 separable_conv2d_9[0][0]         
                                                                 separable_conv2d_8[0][0]         
                                                                 average_pooling2d_1[0][0]        
__________________________________________________________________________________________________
batch_normalization_15 (BatchNo (None, 7, 7, 128)    512         concatenate_11[0][0]             
__________________________________________________________________________________________________
activation_15 (Activation)      (None, 7, 7, 128)    0           batch_normalization_15[0][0]     
__________________________________________________________________________________________________
conv2d_3 (Conv2D)               (None, 7, 7, 64)     8192        activation_15[0][0]              
__________________________________________________________________________________________________
average_pooling2d_2 (AveragePoo (None, 3, 3, 64)     0           conv2d_3[0][0]                   
__________________________________________________________________________________________________
batch_normalization_16 (BatchNo (None, 3, 3, 64)     256         average_pooling2d_2[0][0]        
__________________________________________________________________________________________________
activation_16 (Activation)      (None, 3, 3, 64)     0           batch_normalization_16[0][0]     
__________________________________________________________________________________________________
separable_conv2d_12 (SeparableC (None, 3, 3, 16)     1600        activation_16[0][0]              
__________________________________________________________________________________________________
concatenate_12 (Concatenate)    (None, 3, 3, 80)     0           separable_conv2d_12[0][0]        
                                                                 average_pooling2d_2[0][0]        
__________________________________________________________________________________________________
batch_normalization_17 (BatchNo (None, 3, 3, 80)     320         concatenate_12[0][0]             
__________________________________________________________________________________________________
activation_17 (Activation)      (None, 3, 3, 80)     0           batch_normalization_17[0][0]     
__________________________________________________________________________________________________
separable_conv2d_13 (SeparableC (None, 3, 3, 16)     2000        activation_17[0][0]              
__________________________________________________________________________________________________
concatenate_13 (Concatenate)    (None, 3, 3, 96)     0           separable_conv2d_13[0][0]        
                                                                 separable_conv2d_12[0][0]        
                                                                 average_pooling2d_2[0][0]        
__________________________________________________________________________________________________
batch_normalization_18 (BatchNo (None, 3, 3, 96)     384         concatenate_13[0][0]             
__________________________________________________________________________________________________
activation_18 (Activation)      (None, 3, 3, 96)     0           batch_normalization_18[0][0]     
__________________________________________________________________________________________________
separable_conv2d_14 (SeparableC (None, 3, 3, 16)     2400        activation_18[0][0]              
__________________________________________________________________________________________________
concatenate_14 (Concatenate)    (None, 3, 3, 112)    0           separable_conv2d_14[0][0]        
                                                                 separable_conv2d_13[0][0]        
                                                                 separable_conv2d_12[0][0]        
                                                                 average_pooling2d_2[0][0]        
__________________________________________________________________________________________________
batch_normalization_19 (BatchNo (None, 3, 3, 112)    448         concatenate_14[0][0]             
__________________________________________________________________________________________________
activation_19 (Activation)      (None, 3, 3, 112)    0           batch_normalization_19[0][0]     
__________________________________________________________________________________________________
separable_conv2d_15 (SeparableC (None, 3, 3, 16)     2800        activation_19[0][0]              
__________________________________________________________________________________________________
concatenate_15 (Concatenate)    (None, 3, 3, 128)    0           separable_conv2d_15[0][0]        
                                                                 separable_conv2d_14[0][0]        
                                                                 separable_conv2d_13[0][0]        
                                                                 separable_conv2d_12[0][0]        
                                                                 average_pooling2d_2[0][0]        
__________________________________________________________________________________________________
batch_normalization_20 (BatchNo (None, 3, 3, 128)    512         concatenate_15[0][0]             
__________________________________________________________________________________________________
average_pooling2d_3 (AveragePoo (None, 1, 1, 128)    0           batch_normalization_20[0][0]     
__________________________________________________________________________________________________
flatten (Flatten)               (None, 128)          0           average_pooling2d_3[0][0]        
__________________________________________________________________________________________________
dense (Dense)                   (None, 10)           1290        flatten[0][0]                    
==================================================================================================
Total params: 72,138
Trainable params: 68,170
Non-trainable params: 3,968
__________________________________________________________________________________________________