…
rical_crossentropy: 0.2627 - acc: 0.9446
Model: "separable_resnet_model"
__________________________________________________________________________________________________
Layer (type)                    Output Shape         Param #     Connected to                     
==================================================================================================
input_1 (InputLayer)            [(None, 28, 28, 1)]  0                                            
__________________________________________________________________________________________________
conv2d (Conv2D)                 (None, 28, 28, 64)   576         input_1[0][0]                    
__________________________________________________________________________________________________
batch_normalization (BatchNorma (None, 28, 28, 64)   256         conv2d[0][0]                     
__________________________________________________________________________________________________
activation (Activation)         (None, 28, 28, 64)   0           batch_normalization[0][0]        
__________________________________________________________________________________________________
separable_conv2d (SeparableConv (None, 28, 28, 64)   4672        activation[0][0]                 
__________________________________________________________________________________________________
batch_normalization_1 (BatchNor (None, 28, 28, 64)   256         separable_conv2d[0][0]           
__________________________________________________________________________________________________
activation_1 (Activation)       (None, 28, 28, 64)   0           batch_normalization_1[0][0]      
__________________________________________________________________________________________________
separable_conv2d_1 (SeparableCo (None, 28, 28, 64)   4672        activation_1[0][0]               
__________________________________________________________________________________________________
batch_normalization_2 (BatchNor (None, 28, 28, 64)   256         separable_conv2d_1[0][0]         
__________________________________________________________________________________________________
add (Add)                       (None, 28, 28, 64)   0           batch_normalization_2[0][0]      
                                                                 activation[0][0]                 
__________________________________________________________________________________________________
activation_2 (Activation)       (None, 28, 28, 64)   0           add[0][0]                        
__________________________________________________________________________________________________
separable_conv2d_2 (SeparableCo (None, 28, 28, 64)   4672        activation_2[0][0]               
__________________________________________________________________________________________________
batch_normalization_3 (BatchNor (None, 28, 28, 64)   256         separable_conv2d_2[0][0]         
__________________________________________________________________________________________________
activation_3 (Activation)       (None, 28, 28, 64)   0           batch_normalization_3[0][0]      
__________________________________________________________________________________________________
separable_conv2d_3 (SeparableCo (None, 28, 28, 64)   4672        activation_3[0][0]               
__________________________________________________________________________________________________
batch_normalization_4 (BatchNor (None, 28, 28, 64)   256         separable_conv2d_3[0][0]         
__________________________________________________________________________________________________
add_1 (Add)                     (None, 28, 28, 64)   0           batch_normalization_4[0][0]      
                                                                 activation_2[0][0]               
__________________________________________________________________________________________________
activation_4 (Activation)       (None, 28, 28, 64)   0           add_1[0][0]                      
__________________________________________________________________________________________________
max_pooling2d (MaxPooling2D)    (None, 14, 14, 64)   0           activation_4[0][0]               
__________________________________________________________________________________________________
separable_conv2d_4 (SeparableCo (None, 14, 14, 128)  8768        max_pooling2d[0][0]              
__________________________________________________________________________________________________
batch_normalization_5 (BatchNor (None, 14, 14, 128)  512         separable_conv2d_4[0][0]         
__________________________________________________________________________________________________
activation_5 (Activation)       (None, 14, 14, 128)  0           batch_normalization_5[0][0]      
__________________________________________________________________________________________________
separable_conv2d_5 (SeparableCo (None, 14, 14, 128)  17536       activation_5[0][0]               
__________________________________________________________________________________________________
batch_normalization_6 (BatchNor (None, 14, 14, 128)  512         separable_conv2d_5[0][0]         
__________________________________________________________________________________________________
conv2d_1 (Conv2D)               (None, 14, 14, 128)  8320        max_pooling2d[0][0]              
__________________________________________________________________________________________________
add_2 (Add)                     (None, 14, 14, 128)  0           batch_normalization_6[0][0]      
                                                                 conv2d_1[0][0]                   
__________________________________________________________________________________________________
activation_6 (Activation)       (None, 14, 14, 128)  0           add_2[0][0]                      
__________________________________________________________________________________________________
separable_conv2d_6 (SeparableCo (None, 14, 14, 128)  17536       activation_6[0][0]               
__________________________________________________________________________________________________
batch_normalization_7 (BatchNor (None, 14, 14, 128)  512         separable_conv2d_6[0][0]         
__________________________________________________________________________________________________
activation_7 (Activation)       (None, 14, 14, 128)  0           batch_normalization_7[0][0]      
__________________________________________________________________________________________________
separable_conv2d_7 (SeparableCo (None, 14, 14, 128)  17536       activation_7[0][0]               
__________________________________________________________________________________________________
batch_normalization_8 (BatchNor (None, 14, 14, 128)  512         separable_conv2d_7[0][0]         
__________________________________________________________________________________________________
add_3 (Add)                     (None, 14, 14, 128)  0           batch_normalization_8[0][0]      
                                                                 activation_6[0][0]               
__________________________________________________________________________________________________
activation_8 (Activation)       (None, 14, 14, 128)  0           add_3[0][0]                      
__________________________________________________________________________________________________
max_pooling2d_1 (MaxPooling2D)  (None, 7, 7, 128)    0           activation_8[0][0]               
__________________________________________________________________________________________________
separable_conv2d_8 (SeparableCo (None, 7, 7, 256)    33920       max_pooling2d_1[0][0]            
__________________________________________________________________________________________________
batch_normalization_9 (BatchNor (None, 7, 7, 256)    1024        separable_conv2d_8[0][0]         
__________________________________________________________________________________________________
activation_9 (Activation)       (None, 7, 7, 256)    0           batch_normalization_9[0][0]      
__________________________________________________________________________________________________
separable_conv2d_9 (SeparableCo (None, 7, 7, 256)    67840       activation_9[0][0]               
__________________________________________________________________________________________________
batch_normalization_10 (BatchNo (None, 7, 7, 256)    1024        separable_conv2d_9[0][0]         
__________________________________________________________________________________________________
conv2d_2 (Conv2D)               (None, 7, 7, 256)    33024       max_pooling2d_1[0][0]            
__________________________________________________________________________________________________
add_4 (Add)                     (None, 7, 7, 256)    0           batch_normalization_10[0][0]     
                                                                 conv2d_2[0][0]                   
__________________________________________________________________________________________________
activation_10 (Activation)      (None, 7, 7, 256)    0           add_4[0][0]                      
__________________________________________________________________________________________________
separable_conv2d_10 (SeparableC (None, 7, 7, 256)    67840       activation_10[0][0]              
__________________________________________________________________________________________________
batch_normalization_11 (BatchNo (None, 7, 7, 256)    1024        separable_conv2d_10[0][0]        
__________________________________________________________________________________________________
activation_11 (Activation)      (None, 7, 7, 256)    0           batch_normalization_11[0][0]     
__________________________________________________________________________________________________
separable_conv2d_11 (SeparableC (None, 7, 7, 256)    67840       activation_11[0][0]              
__________________________________________________________________________________________________
batch_normalization_12 (BatchNo (None, 7, 7, 256)    1024        separable_conv2d_11[0][0]        
__________________________________________________________________________________________________
add_5 (Add)                     (None, 7, 7, 256)    0           batch_normalization_12[0][0]     
                                                                 activation_10[0][0]              
__________________________________________________________________________________________________
activation_12 (Activation)      (None, 7, 7, 256)    0           add_5[0][0]                      
__________________________________________________________________________________________________
max_pooling2d_2 (MaxPooling2D)  (None, 3, 3, 256)    0           activation_12[0][0]              
__________________________________________________________________________________________________
separable_conv2d_12 (SeparableC (None, 3, 3, 512)    133376      max_pooling2d_2[0][0]            
__________________________________________________________________________________________________
batch_normalization_13 (BatchNo (None, 3, 3, 512)    2048        separable_conv2d_12[0][0]        
__________________________________________________________________________________________________
activation_13 (Activation)      (None, 3, 3, 512)    0           batch_normalization_13[0][0]     
__________________________________________________________________________________________________
separable_conv2d_13 (SeparableC (None, 3, 3, 512)    266752      activation_13[0][0]              
__________________________________________________________________________________________________
batch_normalization_14 (BatchNo (None, 3, 3, 512)    2048        separable_conv2d_13[0][0]        
__________________________________________________________________________________________________
conv2d_3 (Conv2D)               (None, 3, 3, 512)    131584      max_pooling2d_2[0][0]            
__________________________________________________________________________________________________
add_6 (Add)                     (None, 3, 3, 512)    0           batch_normalization_14[0][0]     
                                                                 conv2d_3[0][0]                   
__________________________________________________________________________________________________
activation_14 (Activation)      (None, 3, 3, 512)    0           add_6[0][0]                      
__________________________________________________________________________________________________
separable_conv2d_14 (SeparableC (None, 3, 3, 512)    266752      activation_14[0][0]              
__________________________________________________________________________________________________
batch_normalization_15 (BatchNo (None, 3, 3, 512)    2048        separable_conv2d_14[0][0]        
__________________________________________________________________________________________________
activation_15 (Activation)      (None, 3, 3, 512)    0           batch_normalization_15[0][0]     
__________________________________________________________________________________________________
separable_conv2d_15 (SeparableC (None, 3, 3, 512)    266752      activation_15[0][0]              
__________________________________________________________________________________________________
batch_normalization_16 (BatchNo (None, 3, 3, 512)    2048        separable_conv2d_15[0][0]        
__________________________________________________________________________________________________
add_7 (Add)                     (None, 3, 3, 512)    0           batch_normalization_16[0][0]     
                                                                 activation_14[0][0]              
__________________________________________________________________________________________________
activation_16 (Activation)      (None, 3, 3, 512)    0           add_7[0][0]                      
__________________________________________________________________________________________________
average_pooling2d (AveragePooli (None, 1, 1, 512)    0           activation_16[0][0]              
__________________________________________________________________________________________________
flatten (Flatten)               (None, 512)          0           average_pooling2d[0][0]          
__________________________________________________________________________________________________
dense (Dense)                   (None, 10)           5130        flatten[0][0]                    
==================================================================================================
Total params: 1,445,386
Trainable params: 1,437,578
Non-trainable params: 7,808
__________________________________________________________________________________________________