…
cal_crossentropy: 0.2611 - acc: 0.9396
Model: "separable_densenet_model"
__________________________________________________________________________________________________
Layer (type)                    Output Shape         Param #     Connected to                     
==================================================================================================
input_1 (InputLayer)            [(None, 28, 28, 1)]  0                                            
__________________________________________________________________________________________________
conv2d (Conv2D)                 (None, 28, 28, 64)   3136        input_1[0][0]                    
__________________________________________________________________________________________________
batch_normalization (BatchNorma (None, 28, 28, 64)   256         conv2d[0][0]                     
__________________________________________________________________________________________________
activation (Activation)         (None, 28, 28, 64)   0           batch_normalization[0][0]        
__________________________________________________________________________________________________
batch_normalization_1 (BatchNor (None, 28, 28, 64)   256         activation[0][0]                 
__________________________________________________________________________________________________
activation_1 (Activation)       (None, 28, 28, 64)   0           batch_normalization_1[0][0]      
__________________________________________________________________________________________________
separable_conv2d (SeparableConv (None, 28, 28, 32)   2624        activation_1[0][0]               
__________________________________________________________________________________________________
concatenate (Concatenate)       (None, 28, 28, 96)   0           separable_conv2d[0][0]           
                                                                 activation[0][0]                 
__________________________________________________________________________________________________
batch_normalization_2 (BatchNor (None, 28, 28, 96)   384         concatenate[0][0]                
__________________________________________________________________________________________________
activation_2 (Activation)       (None, 28, 28, 96)   0           batch_normalization_2[0][0]      
__________________________________________________________________________________________________
separable_conv2d_1 (SeparableCo (None, 28, 28, 32)   3936        activation_2[0][0]               
__________________________________________________________________________________________________
concatenate_1 (Concatenate)     (None, 28, 28, 128)  0           separable_conv2d_1[0][0]         
                                                                 separable_conv2d[0][0]           
                                                                 activation[0][0]                 
__________________________________________________________________________________________________
batch_normalization_3 (BatchNor (None, 28, 28, 128)  512         concatenate_1[0][0]              
__________________________________________________________________________________________________
activation_3 (Activation)       (None, 28, 28, 128)  0           batch_normalization_3[0][0]      
__________________________________________________________________________________________________
separable_conv2d_2 (SeparableCo (None, 28, 28, 32)   5248        activation_3[0][0]               
__________________________________________________________________________________________________
concatenate_2 (Concatenate)     (None, 28, 28, 160)  0           separable_conv2d_2[0][0]         
                                                                 separable_conv2d_1[0][0]         
                                                                 separable_conv2d[0][0]           
                                                                 activation[0][0]                 
__________________________________________________________________________________________________
batch_normalization_4 (BatchNor (None, 28, 28, 160)  640         concatenate_2[0][0]              
__________________________________________________________________________________________________
activation_4 (Activation)       (None, 28, 28, 160)  0           batch_normalization_4[0][0]      
__________________________________________________________________________________________________
separable_conv2d_3 (SeparableCo (None, 28, 28, 32)   6560        activation_4[0][0]               
__________________________________________________________________________________________________
concatenate_3 (Concatenate)     (None, 28, 28, 192)  0           separable_conv2d_3[0][0]         
                                                                 separable_conv2d_2[0][0]         
                                                                 separable_conv2d_1[0][0]         
                                                                 separable_conv2d[0][0]           
                                                                 activation[0][0]                 
__________________________________________________________________________________________________
batch_normalization_5 (BatchNor (None, 28, 28, 192)  768         concatenate_3[0][0]              
__________________________________________________________________________________________________
activation_5 (Activation)       (None, 28, 28, 192)  0           batch_normalization_5[0][0]      
__________________________________________________________________________________________________
conv2d_1 (Conv2D)               (None, 28, 28, 96)   18432       activation_5[0][0]               
__________________________________________________________________________________________________
average_pooling2d (AveragePooli (None, 14, 14, 96)   0           conv2d_1[0][0]                   
__________________________________________________________________________________________________
batch_normalization_6 (BatchNor (None, 14, 14, 96)   384         average_pooling2d[0][0]          
__________________________________________________________________________________________________
activation_6 (Activation)       (None, 14, 14, 96)   0           batch_normalization_6[0][0]      
__________________________________________________________________________________________________
separable_conv2d_4 (SeparableCo (None, 14, 14, 32)   3936        activation_6[0][0]               
__________________________________________________________________________________________________
concatenate_4 (Concatenate)     (None, 14, 14, 128)  0           separable_conv2d_4[0][0]         
                                                                 average_pooling2d[0][0]          
__________________________________________________________________________________________________
batch_normalization_7 (BatchNor (None, 14, 14, 128)  512         concatenate_4[0][0]              
__________________________________________________________________________________________________
activation_7 (Activation)       (None, 14, 14, 128)  0           batch_normalization_7[0][0]      
__________________________________________________________________________________________________
separable_conv2d_5 (SeparableCo (None, 14, 14, 32)   5248        activation_7[0][0]               
__________________________________________________________________________________________________
concatenate_5 (Concatenate)     (None, 14, 14, 160)  0           separable_conv2d_5[0][0]         
                                                                 separable_conv2d_4[0][0]         
                                                                 average_pooling2d[0][0]          
__________________________________________________________________________________________________
batch_normalization_8 (BatchNor (None, 14, 14, 160)  640         concatenate_5[0][0]              
__________________________________________________________________________________________________
activation_8 (Activation)       (None, 14, 14, 160)  0           batch_normalization_8[0][0]      
__________________________________________________________________________________________________
separable_conv2d_6 (SeparableCo (None, 14, 14, 32)   6560        activation_8[0][0]               
__________________________________________________________________________________________________
concatenate_6 (Concatenate)     (None, 14, 14, 192)  0           separable_conv2d_6[0][0]         
                                                                 separable_conv2d_5[0][0]         
                                                                 separable_conv2d_4[0][0]         
                                                                 average_pooling2d[0][0]          
__________________________________________________________________________________________________
batch_normalization_9 (BatchNor (None, 14, 14, 192)  768         concatenate_6[0][0]              
__________________________________________________________________________________________________
activation_9 (Activation)       (None, 14, 14, 192)  0           batch_normalization_9[0][0]      
__________________________________________________________________________________________________
separable_conv2d_7 (SeparableCo (None, 14, 14, 32)   7872        activation_9[0][0]               
__________________________________________________________________________________________________
concatenate_7 (Concatenate)     (None, 14, 14, 224)  0           separable_conv2d_7[0][0]         
                                                                 separable_conv2d_6[0][0]         
                                                                 separable_conv2d_5[0][0]         
                                                                 separable_conv2d_4[0][0]         
                                                                 average_pooling2d[0][0]          
__________________________________________________________________________________________________
batch_normalization_10 (BatchNo (None, 14, 14, 224)  896         concatenate_7[0][0]              
__________________________________________________________________________________________________
activation_10 (Activation)      (None, 14, 14, 224)  0           batch_normalization_10[0][0]     
__________________________________________________________________________________________________
conv2d_2 (Conv2D)               (None, 14, 14, 112)  25088       activation_10[0][0]              
__________________________________________________________________________________________________
average_pooling2d_1 (AveragePoo (None, 7, 7, 112)    0           conv2d_2[0][0]                   
__________________________________________________________________________________________________
batch_normalization_11 (BatchNo (None, 7, 7, 112)    448         average_pooling2d_1[0][0]        
__________________________________________________________________________________________________
activation_11 (Activation)      (None, 7, 7, 112)    0           batch_normalization_11[0][0]     
__________________________________________________________________________________________________
separable_conv2d_8 (SeparableCo (None, 7, 7, 32)     4592        activation_11[0][0]              
__________________________________________________________________________________________________
concatenate_8 (Concatenate)     (None, 7, 7, 144)    0           separable_conv2d_8[0][0]         
                                                                 average_pooling2d_1[0][0]        
__________________________________________________________________________________________________
batch_normalization_12 (BatchNo (None, 7, 7, 144)    576         concatenate_8[0][0]              
__________________________________________________________________________________________________
activation_12 (Activation)      (None, 7, 7, 144)    0           batch_normalization_12[0][0]     
__________________________________________________________________________________________________
separable_conv2d_9 (SeparableCo (None, 7, 7, 32)     5904        activation_12[0][0]              
__________________________________________________________________________________________________
concatenate_9 (Concatenate)     (None, 7, 7, 176)    0           separable_conv2d_9[0][0]         
                                                                 separable_conv2d_8[0][0]         
                                                                 average_pooling2d_1[0][0]        
__________________________________________________________________________________________________
batch_normalization_13 (BatchNo (None, 7, 7, 176)    704         concatenate_9[0][0]              
__________________________________________________________________________________________________
activation_13 (Activation)      (None, 7, 7, 176)    0           batch_normalization_13[0][0]     
__________________________________________________________________________________________________
separable_conv2d_10 (SeparableC (None, 7, 7, 32)     7216        activation_13[0][0]              
__________________________________________________________________________________________________
concatenate_10 (Concatenate)    (None, 7, 7, 208)    0           separable_conv2d_10[0][0]        
                                                                 separable_conv2d_9[0][0]         
                                                                 separable_conv2d_8[0][0]         
                                                                 average_pooling2d_1[0][0]        
__________________________________________________________________________________________________
batch_normalization_14 (BatchNo (None, 7, 7, 208)    832         concatenate_10[0][0]             
__________________________________________________________________________________________________
activation_14 (Activation)      (None, 7, 7, 208)    0           batch_normalization_14[0][0]     
__________________________________________________________________________________________________
separable_conv2d_11 (SeparableC (None, 7, 7, 32)     8528        activation_14[0][0]              
__________________________________________________________________________________________________
concatenate_11 (Concatenate)    (None, 7, 7, 240)    0           separable_conv2d_11[0][0]        
                                                                 separable_conv2d_10[0][0]        
                                                                 separable_conv2d_9[0][0]         
                                                                 separable_conv2d_8[0][0]         
                                                                 average_pooling2d_1[0][0]        
__________________________________________________________________________________________________
batch_normalization_15 (BatchNo (None, 7, 7, 240)    960         concatenate_11[0][0]             
__________________________________________________________________________________________________
activation_15 (Activation)      (None, 7, 7, 240)    0           batch_normalization_15[0][0]     
__________________________________________________________________________________________________
conv2d_3 (Conv2D)               (None, 7, 7, 120)    28800       activation_15[0][0]              
__________________________________________________________________________________________________
average_pooling2d_2 (AveragePoo (None, 3, 3, 120)    0           conv2d_3[0][0]                   
__________________________________________________________________________________________________
batch_normalization_16 (BatchNo (None, 3, 3, 120)    480         average_pooling2d_2[0][0]        
__________________________________________________________________________________________________
activation_16 (Activation)      (None, 3, 3, 120)    0           batch_normalization_16[0][0]     
__________________________________________________________________________________________________
separable_conv2d_12 (SeparableC (None, 3, 3, 32)     4920        activation_16[0][0]              
__________________________________________________________________________________________________
concatenate_12 (Concatenate)    (None, 3, 3, 152)    0           separable_conv2d_12[0][0]        
                                                                 average_pooling2d_2[0][0]        
__________________________________________________________________________________________________
batch_normalization_17 (BatchNo (None, 3, 3, 152)    608         concatenate_12[0][0]             
__________________________________________________________________________________________________
activation_17 (Activation)      (None, 3, 3, 152)    0           batch_normalization_17[0][0]     
__________________________________________________________________________________________________
separable_conv2d_13 (SeparableC (None, 3, 3, 32)     6232        activation_17[0][0]              
__________________________________________________________________________________________________
concatenate_13 (Concatenate)    (None, 3, 3, 184)    0           separable_conv2d_13[0][0]        
                                                                 separable_conv2d_12[0][0]        
                                                                 average_pooling2d_2[0][0]        
__________________________________________________________________________________________________
batch_normalization_18 (BatchNo (None, 3, 3, 184)    736         concatenate_13[0][0]             
__________________________________________________________________________________________________
activation_18 (Activation)      (None, 3, 3, 184)    0           batch_normalization_18[0][0]     
__________________________________________________________________________________________________
separable_conv2d_14 (SeparableC (None, 3, 3, 32)     7544        activation_18[0][0]              
__________________________________________________________________________________________________
concatenate_14 (Concatenate)    (None, 3, 3, 216)    0           separable_conv2d_14[0][0]        
                                                                 separable_conv2d_13[0][0]        
                                                                 separable_conv2d_12[0][0]        
                                                                 average_pooling2d_2[0][0]        
__________________________________________________________________________________________________
batch_normalization_19 (BatchNo (None, 3, 3, 216)    864         concatenate_14[0][0]             
__________________________________________________________________________________________________
activation_19 (Activation)      (None, 3, 3, 216)    0           batch_normalization_19[0][0]     
__________________________________________________________________________________________________
separable_conv2d_15 (SeparableC (None, 3, 3, 32)     8856        activation_19[0][0]              
__________________________________________________________________________________________________
concatenate_15 (Concatenate)    (None, 3, 3, 248)    0           separable_conv2d_15[0][0]        
                                                                 separable_conv2d_14[0][0]        
                                                                 separable_conv2d_13[0][0]        
                                                                 separable_conv2d_12[0][0]        
                                                                 average_pooling2d_2[0][0]        
__________________________________________________________________________________________________
batch_normalization_20 (BatchNo (None, 3, 3, 248)    992         concatenate_15[0][0]             
__________________________________________________________________________________________________
average_pooling2d_3 (AveragePoo (None, 1, 1, 248)    0           batch_normalization_20[0][0]     
__________________________________________________________________________________________________
flatten (Flatten)               (None, 248)          0           average_pooling2d_3[0][0]        
__________________________________________________________________________________________________
dense (Dense)                   (None, 10)           2490        flatten[0][0]                    
==================================================================================================
Total params: 186,938
Trainable params: 180,330
Non-trainable params: 6,608
__________________________________________________________________________________________________